model.pt (torch, 10579 bytes, 4 tensors)

0.weight f4 [11, 200]
000000 2e f6 a2 bd f7 85 7b 3d af 89 c1 bb d5 f9 dc 3a
       -0.07957111 0.061407056 -0.0059063057 0.0016859124
000010 d0 86 a1 3d 16 e3 52 3c 7a c5 83 3d e7 d4 89 bc
       0.078870416 0.012871524 0.0643415 -0.016825153
000020 c0 15 94 3d 6a 20 1f bd 06 ce ab bc b1 c1 04 3d
       0.07230711 -0.03884927 -0.020972263 0.03241128
000030 84 27 6b 3c 21 19 9b bd a0 bf f2 bc 04 cf 6b bb
       0.014352683 -0.07573152 -0.02963239 -0.0035981545
000040 89 33 1a bd e2 52 84 3d 64 fb 94 3d ec 09 e7 bc
       -0.037646804 0.06461121 0.072745115 -0.028202973
000050 aa f9 24 3c 76 90 a2 3c d4 aa 34 3d be 5b cc bb
       0.01006929 0.019844275 0.044108227 -0.0062365225
000060 d8 11 e9 bb 62 41 2a 3d 3e dc b6 3c 2b 73 bf 3d
       -0.007112723 0.04156626 0.022321817 0.093481384
000070 5d e1 74 bc 61 f7 d0 3d bc ab 1f bb bb 3d 12 3c
       -0.014946309 0.10203434 -0.0024363836 0.0089258505
000080 de 6b a4 bb 3c fc 93 bc 0b 56 1c 3c 48 6e 21 3c
       -0.0050177416 -0.01806461 0.009541999 0.009852953
000090 ec ce b5 3d b1 b2 ad 3d 8d d2 2d 3d 76 db 77 3d
       0.08877358 0.08481348 0.042437125 0.06051203
0000a0 eb 7a 36 ba 92 c0 c2 ba d6 bd 80 bc 3e 85 ce 3c
       -0.0006961065 -0.0014858416 -0.01571552 0.02521002
0000b0 9d 1e fc 3b 1c 37 3b bd 21 ed 42 3d 71 d8 13 bc
       0.007694079 -0.045706853 0.047589425 -0.009023772
0000c0 ec 1f 48 3c 22 cc 42 bc 35 b0 8a bd d4 c3 a0 3d
       0.012214642 -0.011889489 -0.0677189 0.07849851
0000d0 d3 11 cf bd 2c 48 70 3d be c5 3d bd 73 79 e1 3c
       -0.101108216 0.05866258 -0.04633116 0.027523732
0000e0 02 2f bb bc 3c bb c4 3c 2a 55 5e bd 73 7c b9 bd
       -0.022849564 0.024015062 -0.054280438 -0.0905694
0000f0 ed dd cf 3c e3 7f b8 3d 96 e2 c6 bc f3 b7 23 3d
       0.025374377 0.090087675 -0.024277966 0.03997035
000100 17 51 7d bb df df d3 3c 65 1a c8 3d 59 8d f4 3c
       -0.003865307 0.025863586 0.09770659 0.029852556
000110 75 52 a0 3c 24 ff 03 3d b1 26 b8 bd b9 89 51 3d
       0.019570569 0.032225743 -0.08991755 0.051156733
000120 c0 53 08 bc 74 5b 8e 3d 01 0e 17 3d 61 d5 82 bd
       -0.008320749 0.06951037 0.03687859 -0.06388355
000130 92 2e 9e 3d 45 7a 47 bd 49 81 69 3d b8 0b 07 3d
       0.07723726 -0.04870059 0.05700806 0.03297016
000140 25 d3 8e bd 09 41 d6 3c 39 4d df 3c 15 e8 57 3d
       -0.069738664 0.026154058 0.027258502 0.052711565
000150 36 53 96 bc 51 69 04 bd 7c 33 c1 3d 0b de 25 bb
       -0.018350225 -0.032327 0.09433648 -0.002530935
000160 1e 31 f9 3c f4 07 36 3d bd 1e 3b bd 1e dc aa bb
       0.030418929 0.04444118 -0.04568361 -0.0052142283
000170 80 5b 70 3d e7 df a3 3d c0 46 c6 bc d7 ab 71 bd
       0.05868101 0.0800169 -0.024203658 -0.05900177
000180 a3 b6 a6 3d 7f 6b 62 bc 4e 07 17 3d e9 ee c1 3d
       0.08140304 -0.013819574 0.0368722 0.094693966
000190 b0 20 17 bd 81 d5 28 bd dc 1f 09 bd 03 a8 fa 3c
       -0.036896408 -0.04121924 -0.03347765 0.030597692
0001a0 f2 b8 aa 3d 45 ff 2f 3d 03 9e 77 3d bc 6a 67 3d
       0.08336057 0.042968053 0.060453426 0.056498274
0001b0 56 52 44 3d 33 30 75 3c 3f 73 48 bd d8 4b c5 3d
       0.047930084 0.014965105 -0.048938032 0.09633607
0001c0 0a 79 c6 3d 67 aa ce 3c 27 78 bd 3c 09 ac 6f bc
       0.09691055 0.025227739 0.023128582 -0.014628419
0001d0 56 31 8a 3d 99 6d b9 bc 5e 09 39 3d 3c 7a 45 3d
       0.06747691 -0.022635268 0.04517495 0.048212275
0001e0 50 04 76 bb 69 7f ba bc 7a b9 0d bd b0 70 90 3c
       -0.0037539192 -0.022765832 -0.034600712 0.017631859
0001f0 3f 9e 71 3d f6 e5 97 bd ae c9 6c 3c dc 8c d1 bc
       0.058988806 -0.074169084 0.014452381 -0.025579862
000200 7d e4 98 3c 2f eb 16 bd 07 7e 83 3d 51 dd 0f bd
       0.01866364 -0.036845382 0.06420522 -0.035123173
000210 a4 8b 02 3d 38 6e 9b 3c 3f 82 20 bd cd 81 85 bd
       0.031871453 0.018973455 -0.039186712 -0.06518898
000220 e4 d9 32 3d 2d 83 25 bd 13 12 37 3c 53 7e 96 bd
       0.043664828 -0.040408302 0.011173743 -0.07348313
000230 b2 93 f4 3b 4a 30 13 bd df e8 0e bd 11 39 13 bd
       0.0074638957 -0.035934724 -0.034890052 -0.035943095
000240 95 53 d3 3d a1 cd 5e bd a0 54 f3 3c 55 ae 6b 3c
       0.103186764 -0.05439532 0.029703438 0.014384826
000250 77 ec 41 3d 14 b5 e0 3c a8 95 5a bd ff c2 97 ba
       0.04734465 0.027430095 -0.05336538 -0.0011578499
000260 c7 9f 0d 3d ba 72 d3 3c b9 dc 97 3d d9 6f ca bc
       0.034576204 0.025811542 0.074151464 -0.024711536
000270 9f 58 bc bc 4c e7 b9 3b ab 42 02 3d 91 f9 43 3c
       -0.022991477 0.0056733247 0.03180186 0.011961357
000280 e0 d2 89 39 d0 36 5d 3d 46 82 ab bd 98 11 ad bd
       0.0002628779 0.05400735 -0.08374457 -0.08450621
000290 ae eb a8 3d 7b 51 bb bd 9d a8 35 bd b5 f5 a8 3d
       0.08248077 -0.091464005 -0.044350255 0.0824999
0002a0 36 ea d8 bc 90 f9 ba bc e6 41 1b bc b8 0f ee 3c
       -0.026478868 -0.022824079 -0.009476161 0.02906023
0002b0 20 19 dc 3c 35 d1 9b bc 36 d8 8f bb 27 f4 0c bc
       0.02686745 -0.019020656 -0.004389788 -0.008603132
0002c0 5c 4a c1 3d 81 c5 5a 3d a6 5f ba 3d 14 24 19 3a
       0.09438011 0.05341101 0.09100275 0.0005841863
0002d0 5e 18 24 3c 72 55 1a 3d 01 2c 7d 3b f1 91 14 bd
       0.010015575 0.037679143 0.0038630965 -0.036271993
0002e0 28 de c1 bd 7e 0c e6 bc 10 5a 53 3d 19 12 cf 3c
       -0.09466201 -0.028082129 0.051599562 0.025277184
0002f0 78 9d 49 bd 42 04 24 3c ec a4 11 3d 88 5f 15 3d
       -0.04922244 0.010010781 0.035557672 0.03646806
000300 c8 a6 72 3d c5 ca 07 bd b7 5c 13 bd 6e f3 39 bd
       0.059241086 -0.03315236 -0.03597709 -0.04539817
000310 0a 62 ae 3c 5d e1 96 3d fa c8 84 bc b9 ff 22 bd
       0.021286983 0.073672034 -0.016209114 -0.039794657
000320 cf 35 c4 3d 50 ef 17 bd b3 e2 39 bb f9 1d a2 bc
       0.09580576 -0.03709346 -0.0028363883 -0.019789683
000330 58 a9 a4 bd 3d 32 c0 3c 55 15 4b 3d 55 52 c8 bd
       -0.08040112 0.023461455 0.04958089 -0.097813286
000340 7b c9 78 bc ab fd b1 3c 25 92 85 3d 92 48 b5 3c
       -0.015184755 0.021727404 0.065220155 0.02212933
000350 ba 74 57 bd 12 d8 a1 bc ea 51 98 3d b2 f9 a8 3d
       -0.052601553 -0.01975635 0.07437499 0.082507506
000360 2b 80 2a bd 7e 6c 6f bd ed 19 b7 3c ab 20 f3 3c
       -0.041626137 -0.058453076 0.02235123 0.029678663
000370 f5 a0 36 3d 76 45 91 3c 40 ba 82 bc b8 8e db bc
       0.044587094 0.017733317 -0.015957952 -0.026801452
000380 2d 41 c0 3d 0c 51 31 bb e8 74 a5 3a 1a 7b cf bd
       0.09387431 -0.0027056364 0.0012623342 -0.10130902
000390 73 28 ba bc 52 f2 80 bc 13 e6 6a bd f5 51 a1 bd
       -0.022724366 -0.015740547 -0.057348322 -0.0787696
0003a0 d9 20 c8 3d 6b 9c 7d 3d 9b 07 2e 3d 32 24 b3 3d
       0.0977189 0.06191675 0.042487722 0.08747138
0003b0 78 89 0e bd 92 5c 45 bd 2e bf 46 bc b5 eb 56 bd
       -0.03479907 -0.048183985 -0.012130542 -0.05247088
0003c0 c7 c1 f7 3c b6 50 8b bb 13 a3 90 bd c1 fd 13 bd
       0.030243767 -0.004251565 -0.07062354 -0.03613067
0003d0 3d 1d 84 3d 8a 80 d4 3c 61 5a 30 3c 4b 8b 5f 3b
       0.06450889 0.025940198 0.0107637355 0.0034110125
0003e0 82 ba 75 bd 3a 0e 7c bd 26 fb 2e 3c 6f 1e 09 bc
       -0.05999232 -0.061537005 0.010679996 -0.008369072
0003f0 b5 7b 6f 3a d2 14 8a bd 4a d5 32 3d 89 9c 5e 3d
       0.000913556 -0.067422524 0.04366044 0.054348502

0.bias f4 [11]
000000 28 86 97 3d 5c 53 55 3c ba b8 41 3d 53 12 ca 3d
       0.07398635 0.013020363 0.04729531 0.09866776
000010 81 fe b1 3d 75 02 09 3d 38 fb dc 3c b3 e0 9d bc
       0.08691121 0.03344961 0.02697526 -0.019272184
000020 7e e0 f6 bc 11 d0 c1 3d f7 8b df 3d
       -0.030136343 0.09463514 0.10915368

2.weight f4 [5, 11]
000000 af cd 8b be 54 fa 65 3e 45 89 9a 3e b6 63 3d 3e
       -0.27305362 0.22458774 0.30182853 0.18495068
000010 ca 77 7a 3e 58 48 e2 bd 2a be 65 3e 4d 43 79 be
       0.24459758 -0.11048955 0.22435823 -0.2434208
000020 2b f1 98 be e6 27 dd bc 09 c9 97 3e 44 28 80 3e
       -0.29871497 -0.026996564 0.29645565 0.2503072
000030 b1 a8 f5 3d bf 78 05 bd 8e e1 82 3e 66 b7 ce bb
       0.11995066 -0.032585856 0.2556271 -0.006308484
000040 c7 36 7d 3c df e6 76 be d3 39 78 3e b0 26 67 bd
       0.0154549545 -0.24111508 0.24240808 -0.05643338
000050 9e 2c 2b be 48 26 e9 bd 4d 7b 24 3e ef 79 64 be
       -0.16716239 -0.11384255 0.1606266 -0.22312139
000060 e9 f1 8d 3e 83 5f f8 bd 83 db 89 bd 29 43 e2 bd
       0.27723625 -0.121275924 -0.06731322 -0.11047966
000070 95 fd 35 bd 68 38 85 3d 9f e4 1a bd 05 80 a3 bd
       -0.044431288 0.06504899 -0.037815686 -0.07983402
000080 aa a1 95 3d 4f a3 32 3e 1f 2d 37 be 66 a9 a9 be
       0.073062256 0.1744511 -0.17888306 -0.33137053
000090 7f d7 2b be c0 29 7f be 88 02 dd 3d 9c 4f 1b 3e
       -0.16781424 -0.2491827 0.107914984 0.15167087
0000a0 23 de 45 3e fb 9d d3 bd 4b 34 56 3e cf cc aa 3d
       0.1932302 -0.10332867 0.20918386 0.083398454
0000b0 51 64 ea 3d 21 27 6e 3d 3e 68 c9 bd f9 fa 8e be
       0.11444915 0.058142785 -0.09834336 -0.27925852
0000c0 2d 9b b5 bd ea 95 50 3d 9c 6e 1d be db df 37 be
       -0.08867488 0.05092422 -0.15374225 -0.17956488
0000d0 f2 24 77 3e 17 a1 4b be cb 4e f6 bb
       0.24135187 -0.1988567 -0.007516717

2.bias f4 [5]
000000 38 3a 02 be 0d 07 1b be d3 32 78 be 46 bd 03 be
       -0.12717521 -0.15139408 -0.24238138 -0.12865171
000010 6c a9 08 be
       -0.1334588
